src/06_cnn/06_cnn_fashion_mnist_model.pth (torch, 403951 bytes, 16 tensors)

conv1.weight f4 [32, 1, 3, 3]
000000 c9 e5 08 be c1 75 04 3e 83 52 2c 3e 5f 34 cd bb
       -0.13368906 0.12935545 0.1682835 -0.0062623466
000010 33 47 27 be eb 81 ee bd 83 55 89 be 76 4b 98 bd
       -0.16335754 -0.11645874 -0.26823053 -0.07436268
000020 c4 66 19 be 17 a4 46 be 2d bf af 3d be af 05 3e
       -0.14980608 -0.19398533 0.08581386 0.13055322
000030 a8 df b1 3d 13 1c e4 bc 50 10 0e be 27 c8 54 3e
       0.08685237 -0.027845418 -0.1387341 0.20779477
000040 1e c9 99 3e 1b d3 27 be 89 08 a5 bd ca b8 24 be
       0.30036253 -0.16389124 -0.080582686 -0.16086116
000050 7d 78 e7 bd 03 5a 1d 3d 00 f0 8c 3e 46 63 30 3e
       -0.11302278 0.03841592 0.27526855 0.1722537
000060 da 8a 0f 3e 52 17 ef ba 67 04 c5 3b 48 03 1d 3e
       0.14017811 -0.0018241203 0.0060124877 0.15333283
000070 c7 14 0e be c4 d7 66 3d 3b 83 20 3e b0 cc a6 3e
       -0.13875113 0.056358114 0.1567506 0.3257804
000080 ed 99 11 3e 2b 9f 94 3e 01 c2 42 be 54 70 ac 3e
       0.14218874 0.29027686 -0.19019319 0.3367945
000090 a9 34 0f be 08 c2 9a 3d 84 70 98 be f4 d2 39 be
       -0.13984932 0.0755654 -0.29773343 -0.18146878
0000a0 88 1f 5e be a9 00 6a be 31 30 e0 bc 9f 6d 1a 3e
       -0.21691716 -0.22851814 -0.02736673 0.1508088
0000b0 66 61 99 bb b3 58 e5 3c db d3 e2 3d 02 37 41 3e
       -0.0046808003 0.027996397 0.110755645 0.1886864
0000c0 8a 97 26 bc 35 75 58 3e dc 11 25 3d 58 68 2b be
       -0.010167966 0.21138461 0.040300235 -0.16739023
0000d0 17 bd 89 3d 45 d2 42 3e 04 b7 96 bd 72 e1 42 3d
       0.06725519 0.19025524 -0.07359126 0.047578283
0000e0 38 54 fd bb 9f a5 8a be 41 48 e6 bd 06 17 4c 3e
       -0.007730987 -0.27079484 -0.1124425 0.19930658
0000f0 18 ad 73 be 19 fd 60 bc 70 ac 94 3e 5b d1 af be
       -0.23796499 -0.013732218 0.2903781 -0.34339413
000100 3b f4 9b be ae 54 89 3e 0a 07 42 3e d1 e1 8e be
       -0.3045977 0.26822418 0.18947998 -0.2790666
000110 44 22 32 b9 e5 15 6b 3e 85 c4 92 be 7c 5b 5e 3e
       -0.00016988168 0.22957571 -0.28665558 0.21714586
000120 ce 26 9f be 5d ed 11 3e 5a 49 82 3e 84 6f 33 3e
       -0.31084293 0.14250703 0.25446588 0.17523009
000130 08 63 7d 3d 77 3b 99 bc 30 24 d1 3c 45 92 05 bd
       0.06186202 -0.018705113 0.02552995 -0.032610197
000140 83 90 b9 3d e5 1d 6b be 93 7e 46 be cf 75 6b bd
       0.090607665 -0.22960623 -0.19384222 -0.057485398
000150 a1 b6 82 be f0 d7 1f 3e 2a 4d 5e 3e dc 2e 27 bc
       -0.2552996 0.15609717 0.21709123 -0.010204043
000160 91 bb 6f 3e fa cf 25 3e 9b ec 02 be 4c ba ee bc
       0.23411395 0.16192618 -0.1278557 -0.029141568
000170 61 f8 43 be 77 76 24 3d dc 88 b5 3d bd 59 f1 3d
       -0.19137718 0.04015204 0.088639945 0.11784694
000180 e5 57 60 3d 4d ab ff bd 10 ec 88 be e9 3f 33 3e
       0.054771323 -0.12483845 -0.267426 0.17504849
000190 87 2b 43 be d7 e6 84 3b 3d 09 36 3e 52 98 c7 3d
       -0.19059573 0.0040558386 0.17776962 0.0974585
0001a0 c2 cd 03 be 06 c3 32 be 17 09 8f 3e 1e 7c 53 be
       -0.12871459 -0.17457208 0.27936623 -0.20652816
0001b0 26 bd c6 be f1 5d 14 3e 58 f0 32 3e 29 64 51 3e
       -0.38816184 0.14488961 0.17474496 0.20448364
0001c0 f8 7a e8 bd a6 fb ce bd 2a 4c 3a 3e 56 c3 41 bd
       -0.113515794 -0.10106592 0.18193117 -0.047305427
0001d0 56 67 82 bd d8 2b 03 3e ef 5a 18 be b5 f7 94 3d
       -0.06367366 0.12809694 -0.14878438 0.07273809
0001e0 cc 56 2b be 04 70 84 be 1e c0 6a be 2a 6d 8d 3e
       -0.16732329 -0.2586671 -0.2292485 0.27622348
0001f0 ad bd bc bb 5f 97 6d bd 18 cd 9e 3e 1d cb 36 be
       -0.005759916 -0.058005687 0.3101585 -0.17850919
000200 27 63 5a 3e 35 b8 25 3e 87 7c 18 be ea 7c aa be
       0.21326886 0.1618355 -0.14891253 -0.33298427
000210 1b 05 f9 3d 91 67 9d 3e 16 7e 78 3e 18 59 41 be
       0.12159177 0.30743077 0.24266848 -0.18881643
000220 e2 76 b4 bd 0f d1 c2 3d ab 63 64 3e bf 67 ba 3d
       -0.088117376 0.09512531 0.22303645 0.09101819
000230 60 14 fa 3d 57 96 3c 3e 79 02 8a 3d ab 20 94 be
       0.122109175 0.18416725 0.06738753 -0.28931174
000240 08 44 18 be 7b c0 78 3e 28 59 5d 3e 28 d9 92 3e
       -0.14869702 0.24292175 0.21616042 0.28681302
000250 c2 a1 98 be 2e d8 98 3e 86 b0 1b be e4 98 ac be
       -0.2981091 0.29852432 -0.15204057 -0.33710396
000260 fc 6b 2e 3e a7 c1 a7 be 17 58 af 3d 7c a2 43 be
       0.1703338 -0.32764933 0.08561724 -0.19104952
000270 ba a7 80 be 75 4b 8f bd 0d 6e 3d be b3 95 19 3e
       -0.25127965 -0.06996814 -0.18499012 0.14998512
000280 32 11 cd bd b1 09 9e 3e 64 fc a7 3d e4 e1 35 3e
       -0.10013045 0.3086677 0.082024366 0.17761952
000290 2d 95 29 be 6a c4 2b 3e be 18 86 be fc 60 84 3e
       -0.16560812 0.16774145 -0.26190752 0.25855243
0002a0 86 b6 a5 be 32 3c fa bd af 94 2a be 90 eb f7 bc
       -0.32365817 -0.122185126 -0.16658281 -0.030263692
0002b0 a4 d1 8c be c1 05 a7 bd 5f 97 87 be 37 e5 41 be
       -0.27503693 -0.08155394 -0.26482674 -0.18935095
0002c0 67 1e 0b bd 6a 8b 1c be 5c a1 9b be 03 5b b2 bd
       -0.03396454 -0.15287557 -0.30396545 -0.08708765
0002d0 a3 0d 0d be 03 d9 95 3d 1b 16 f6 3d ec 70 95 3d
       -0.13774733 0.07316782 0.12015935 0.07296929
0002e0 5d 00 87 3e 24 e7 ec 3d 2a fa a9 3d 12 ce fb 3d
       0.26367465 0.11567524 0.08299668 0.12295164
0002f0 99 54 59 3e cd fb cb bc 2b 0a 2b 3e cc ec 1f be
       0.21223678 -0.024900341 0.16703098 -0.15617675
000300 ec 97 32 3e 91 b8 7f be 0d 2a be 3d 85 5b c4 3d
       0.17440766 -0.2497275 0.09285364 0.095877685
000310 05 fe 37 be 48 89 96 3d b4 a7 d1 3b 99 bc 13 3e
       -0.17967995 0.07350403 0.0063981656 0.14427413
000320 83 c6 32 be 8c 28 8c be b0 57 2d 3e 42 77 23 3e
       -0.17458539 -0.27374685 0.16927981 0.15963462
000330 a5 62 3d be 32 4f a0 3e 28 e5 24 be f4 8d 2f 3e
       -0.18494661 0.3131042 -0.16103041 0.17143995
000340 cd 20 44 3d fb bd 29 be 83 d2 af 3c d4 1d ca 3d
       0.047882844 -0.16576378 0.021462684 0.098689705
000350 62 68 9a 3e fa b6 15 be 4a 2f 30 3e cf c2 64 be
       0.30157763 -0.14620581 0.1720554 -0.22339939
000360 f9 b5 01 3e a7 75 00 3e 10 76 48 bd b2 c7 67 3e
       0.12667073 0.12544881 -0.04894072 0.22634771
000370 61 bb 6b be bf 27 67 be 54 ca 98 be 1b 4a 1a be
       -0.23020698 -0.22573756 -0.29841864 -0.15067331
000380 f7 ac 96 3e 75 74 02 be 8c 20 62 3e ec 76 7b be
       0.29428837 -0.12739737 0.22082728 -0.24557084
000390 4b 06 db 3d 02 4d 0f 3e 11 fd 8a 3e 1c e8 20 be
       0.1069456 0.1399422 0.271462 -0.15713543
0003a0 a9 16 34 3e f7 3a b0 3e ec a0 b6 bd 2d 72 6c be
       0.17586769 0.34419987 -0.08917412 -0.2309043
0003b0 1d 37 a2 3d 0c f6 aa bc 06 9d 2b 3e 74 67 a5 be
       0.07920668 -0.020869277 0.16759118 -0.3230549
0003c0 75 5d 32 3e 4b 86 08 3e bb 27 a7 be da e3 08 3d
       0.17418464 0.13332479 -0.326475 0.03342042
0003d0 95 ec ea 3d 89 49 2c be 4d f3 a2 be c1 76 12 3e
       0.11470906 -0.16824926 -0.3182625 0.14303114
0003e0 cb 6c a1 be 9f 5c 38 be be 0d ab 3d 95 8e 2d be
       -0.31528315 -0.18004082 0.083522305 -0.16948922
0003f0 7f 0c 65 3b 95 b5 1a be 9d e5 9d 3d 3b 36 cc 3d
       0.0034950075 -0.1510833 0.07709811 0.09971281

conv1.bias f4 [32]
000000 fd 02 83 3e 00 f3 9c bd 81 83 1c be 6f a5 9f bd
       0.25588217 -0.07663536 -0.1528454 -0.07795226
000010 d5 84 e6 bd 7a 77 fe bd 30 3f b3 3c 7f dd 8e 3e
       -0.112558044 -0.12425132 0.021880716 0.27903363
000020 3e aa 9e 3e 40 ca 9f 3e 26 12 9b be 4c 50 8e be
       0.3098926 0.31208992 -0.30287284 -0.27795637
000030 ce a0 34 3e 39 1b 81 3e df fd 49 be ff 27 a8 3e
       0.17639467 0.25216082 -0.1972575 0.32843015
000040 06 02 ca bd b9 13 50 3d 9b da 0c 3d 0e dd 59 3e
       -0.09863667 0.05080006 0.034388166 0.21275732
000050 5f 9e 8c 3e 01 dd 82 3e ca bd 7b be d4 e0 8e 3e
       0.27464578 0.25559238 -0.24584118 0.27905905
000060 e8 e2 a6 3e 08 2d ca 3d 18 19 29 be da 2b c5 3c
       0.3259499 0.0987187 -0.16513479 0.024068762
000070 c0 97 fc bd a2 72 a5 be 46 f7 24 3e 01 7c 37 be
       -0.123336315 -0.3231402 0.16109952 -0.17918397

norm1.weight f4 [32]
000000 96 ae 82 3f 05 90 7b 3f f5 67 7a 3f aa 07 7d 3f
       1.0209529 0.9826663 0.97814876 0.9883982
000010 ab 8a 83 3f 4e 1d 80 3f b5 18 84 3f a0 01 80 3f
       1.0276693 1.0008943 1.032004 1.0000496
000020 fa 9b 7a 3f 8f 78 75 3f cb 6d 81 3f 67 89 7a 3f
       0.9789425 0.9588708 1.0111631 0.9786591
000030 20 60 77 3f 8c 68 84 3f 04 ec 7b 3f fd 0d 7c 3f
       0.9663105 1.0344405 0.98407006 0.98458844
000040 66 f1 78 3f d3 65 85 3f b8 f3 82 3f 6b 4e 85 3f
       0.97243345 1.0421699 1.0230627 1.0414556
000050 fa 61 7e 3f 55 04 77 3f 9a 1e 80 3f 6f e6 77 3f
       0.9936825 0.96490985 1.0009339 0.9683599
000060 c1 4b 83 3f 75 16 7b 3f b4 34 83 3f 51 80 7f 3f
       1.0257493 0.9808114 1.0250459 0.9980517
000070 0f 5b 7f 3f 22 d4 84 3f a4 c7 75 3f be 19 7f 3f
       0.9974832 1.0377238 0.9600775 0.99648654

norm1.bias f4 [32]
000000 b9 76 07 bd d5 26 82 3c 44 a8 3c 3d 7a ec a9 bc
       -0.033072207 0.015887657 0.046058908 -0.020742644
000010 ef 13 82 bd eb 9c 63 3c 99 68 20 3c 24 19 be 3c
       -0.06351458 0.013892393 0.009790563 0.023205347
000020 c4 d1 70 3a d3 b3 87 3d ac 80 81 bc 20 fa 10 3c
       0.0009186531 0.066260956 -0.015808426 0.008848697
000030 51 fc 19 bc 0c 35 b5 bd 1a 96 2c 3c 4b b1 b4 3c
       -0.009398536 -0.088480085 0.010533834 0.022057196
000040 55 59 52 3c a9 8c cb bd 2f 4d 16 bd 8a ac fb bc
       0.012838681 -0.09938938 -0.0366947 -0.030721921
000050 85 7b 20 3d c4 52 44 bc e3 93 dd 3c 8f a1 47 3c
       0.039180297 -0.0119826235 0.027048057 0.012184515
000060 a4 51 0a bd d2 76 15 3d 63 b0 26 bd 40 2f 1b bd
       -0.033769265 0.03649027 -0.04069556 -0.037886858
000070 c0 f4 84 bc 76 ab 7a bd 22 b1 d3 3b 4e f0 08 ba
       -0.016229987 -0.061198674 0.006460325 -0.00052237965

norm1.running_mean f4 [32]
000000 9c d3 5c 3d 59 7d 8b 3c 33 af 77 bd 71 75 96 3e
       0.053912744 0.017027544 -0.060469817 0.29386476
000010 68 d9 cb be 02 59 bd 3d 3a 2a 12 bd 39 b3 35 3e
       -0.39814305 0.092454925 -0.0356848 0.1774415
000020 1f 2b e0 3e fa 55 a5 3e 4e f7 e3 be 06 fb 88 be
       0.437829 0.32292157 -0.44524616 -0.26754016
000030 c4 20 31 3e 7d c4 f7 3d df b5 e3 3c c9 41 cd 3e
       0.17297655 0.12098024 0.027796684 0.40089253
000040 79 7d f8 bb ba 4f 0e be 1e cd a6 bd e1 53 81 be
       -0.007583317 -0.13897601 -0.08144592 -0.25259307
000050 f8 78 14 3f ab 9c 81 3e be 37 7a be b4 24 be 3e
       0.57997084 0.2531484 -0.24435326 0.37137377
000060 70 05 88 3e 90 6e ae 3e d0 a0 9d be 42 44 6c be
       0.26566648 0.34068727 -0.30786753 -0.23072913
000070 be bd 3c be b3 74 11 bf 81 bd 51 3e c9 dd 49 bd
       -0.18431756 -0.56818694 0.20482446 -0.049283776

norm1.running_var f4 [32]
000000 33 c4 35 3d 92 aa 6d 3c 39 81 4e 3c 3b af 08 3e
       0.044376563 0.014505999 0.012604051 0.13348095
000010 21 f2 a8 3d 94 bd 57 3d 2a 8c c9 3c 1d f2 f1 3c
       0.082493074 0.05267103 0.024602968 0.029534394
000020 41 a6 a7 3c 2b a5 a9 3c 03 c0 b0 3c 40 0a e0 3b
       0.020465018 0.020708641 0.021575933 0.0068371594
000030 52 6a 3e 3b ed 21 d5 3c ea 13 62 3d 80 54 28 3c
       0.002905507 0.026017154 0.055194773 0.010274053
000040 c9 86 c9 3c da f2 37 3d fd f5 9c 3c 9d 8b 5c 3e
       0.024600403 0.044909336 0.019160265 0.21537633
000050 69 8f c4 3d af 97 49 3b 2f ef 10 3c cb 12 4f 3c
       0.09597666 0.0030760576 0.008846088 0.012638758
000060 ee ec 19 3c d5 b0 8d 3d 48 4a ec 3c 68 db 86 3d
       0.009394867 0.06918494 0.028844014 0.06584817
000070 f8 75 33 3c 2e 29 7a 3d d7 e5 ea 3b 02 fc ae 3c
       0.010953419 0.06107443 0.0071685123 0.021360401

conv2.weight f4 [64, 32, 3, 3]
000000 25 d4 28 bd ae 34 33 bd b6 1f 55 3c f4 c6 d4 bc
       -0.04121794 -0.04375141 0.013008049 -0.025973774
000010 2e 27 1c bd 3d 1f c1 bc 03 b5 80 3d fa 31 20 3d
       -0.038123302 -0.023574466 0.06284525 0.03911016
000020 5e d6 c5 bc 7e 22 1e 3c 22 25 1a 3d 3c 39 aa 3c
       -0.02415007 0.009651778 0.03763307 0.020779245
000030 7c 13 2e 3d d3 a6 0b bd a1 43 37 bc 1d f8 0f bd
       0.04249905 -0.034094643 -0.011185558 -0.03514873
000040 77 f3 2a 3c 36 a6 56 bc c8 5a 0c 3d f5 9f 9a bc
       0.010434023 -0.013101151 0.034266263 -0.018875102
000050 03 78 10 bc 9e ad 4a bd 71 1a fb 3c 20 44 bb 3c
       -0.0088176755 -0.04948198 0.030652257 0.022859633
000060 de 68 ae 3b 5e fe 22 3c cf 0e ff bc b3 b3 70 3d
       0.0053225597 0.009948341 -0.031134991 0.058765125
000070 a4 cf 3b 3d 5b 9b e5 bc 1b 6f 85 bd 32 8e e7 3c
       0.04585232 -0.02802818 -0.06515332 0.028266046
000080 15 85 b2 3c d7 e3 e3 3c 5c 50 05 bd c0 be 31 3d
       0.021791974 0.027818603 -0.03254734 0.043394804
000090 49 95 ed 3c ea a5 fa bc 21 74 42 3d 5d 71 94 3b
       0.029001849 -0.030596692 0.04747403 0.0045301155
0000a0 d5 18 67 3c 7c df 0d 3c 59 b7 16 bd 96 6f 10 bd
       0.0141050415 0.00865924 -0.036795948 -0.035262667
0000b0 bd 29 0a 3d af c6 3d bd f0 0d 5f bd af 6e 19 3d
       0.03373121 -0.046332058 -0.05445665 0.03745907
0000c0 e9 58 10 3c ba e0 f2 bb 61 f2 36 bd 3f e8 8b bc
       0.00881026 -0.0074120434 -0.044664744 -0.017078517
0000d0 f7 c0 38 3d ce 08 67 bd 25 ed 67 b9 f3 ab e8 bc
       0.0451059 -0.05640488 -0.0002211822 -0.028402304
0000e0 58 7a 36 bc 77 05 7e bc 02 cf 1e 3b 22 76 c4 3c
       -0.011137567 -0.015504233 0.0024232273 0.023982111
0000f0 ed 0d 56 bd 5a f3 4d bc 65 be 96 3c 0b 89 8c bd
       -0.052259374 -0.012570227 0.018401334 -0.06862076
000100 ce 9f 45 bd c4 3b 27 3d 26 8d 0f bd 13 bf ff bc
       -0.048248105 0.04082848 -0.03504672 -0.031219041
000110 98 67 17 bd 86 91 11 bc ae a2 34 bc 6f 97 0a 3d
       -0.03696403 -0.008884793 -0.011025114 0.033835825
000120 70 2a 13 bc 3f 59 51 bd 6d d8 09 bc b7 5e a0 3b
       -0.008982286 -0.051110502 -0.008413416 0.0048941034
000130 85 76 6d 3c 6b 4f 48 3d 5f c6 ba 3c f3 4d 5d 3c
       0.014493589 0.048903864 0.022799669 0.013507354
000140 7e db 86 3c e9 e2 97 3c 47 15 8c 3a b4 03 9b bc
       0.016462084 0.018540816 0.0010687493 -0.018922664
000150 01 4c 8a 3c e1 2b 6e bd 98 3c 53 3c af 2f 96 bc
       0.016881945 -0.058147315 0.012892865 -0.018333284
000160 21 ac ea bc ff 14 f3 3c 40 cf 31 3c 48 d6 5b bd
       -0.02864653 0.029673098 0.010852635 -0.05367115
000170 a6 e4 6b 3c f2 04 e0 3c de fa 12 bd 6a 46 28 bd
       0.014397776 0.027346108 -0.035883777 -0.041082777
000180 b6 93 32 bd d4 69 19 3c f5 96 b0 bc 07 75 10 bc
       -0.0435979 0.00936361 -0.021556357 -0.008816964
000190 21 b0 b4 bc ab a8 66 bc 71 96 78 bb 8a 00 eb 3c
       -0.022056641 -0.0140782995 -0.0037931467 0.02868678
0001a0 39 81 e5 3c 09 a5 4d bd b1 85 95 3c d0 2f 3d 3c
       0.02801572 -0.050206218 0.018252226 0.011547044
0001b0 7f 72 01 3c 68 a0 df bc 7b 4c 7e 3c 60 dd a3 bc
       0.007900833 -0.027298167 0.015521164 -0.02000302
0001c0 83 dc d1 3c 00 aa 65 bd 83 df 3f 3d b0 0d 54 3d
       0.025617843 -0.056070328 0.046844017 0.051770866
0001d0 09 a5 84 3b e3 2c 3a bb 1f 35 83 3d 97 13 05 3c
       0.004047994 -0.0028408102 0.064066164 0.008122346
0001e0 c3 0f 9b 3c 43 f0 4e bd c5 f6 96 ba 7c c1 10 bd
       0.018928414 -0.0505221 -0.0011517635 -0.03534077
0001f0 9c e2 ce bc 9f 41 59 3c a3 54 8d 3b 7e f5 24 3d
       -0.02525454 0.013260274 0.004313068 0.040273182
000200 a2 0c ce 3c 85 51 32 bc 08 66 ef bb b6 9f 47 bc
       0.025152508 -0.010883694 -0.0073058642 -0.012184074
000210 68 2d 87 3c 70 14 32 bd 8c 22 42 3d ba 71 84 bc
       0.016501144 -0.043476522 0.047396228 -0.01616751
000220 26 9b 06 bd b7 e4 4c bd 7d 96 30 bc 20 4e 5e 3c
       -0.032862805 -0.050022807 -0.010778067 0.013568431
000230 4d af fa bc a3 c7 85 bd cd 76 b7 bc 3a dd cb bc
       -0.030601168 -0.06532218 -0.022395516 -0.024885762
000240 9c b8 86 3a dc 26 16 3c b3 65 4f bd d6 4d a6 bb
       0.0010278407 0.009164538 -0.050634097 -0.0050751967
000250 0a 36 b0 3c fe 6f 3b bc 2e 98 00 3d da 12 a1 bb
       0.021510143 -0.011440275 0.03139513 -0.0049155774
000260 d6 4f b7 bc ae 45 18 3d 16 e8 90 3d 28 76 93 bb
       -0.022376936 0.037175827 0.07075517 -0.0045001693
000270 f2 df 0c bd bd 6d 87 bd 6a 6c af 3c b0 81 96 bc
       -0.03439326 -0.06612728 0.021414 -0.018372387
000280 c8 d9 d2 3c 44 ee 0e 3d 15 85 e4 bc 45 84 0e bd
       0.025738612 0.034895197 -0.02789549 -0.03479411
000290 a3 19 30 3d 9b e9 14 bd fd 29 78 3c 4e 4f 68 bc
       0.0429932 -0.036355596 0.01514673 -0.014179064
0002a0 a4 ce 44 3d 53 c5 38 bc 65 94 c4 3c db c5 05 3d
       0.04804863 -0.0112775145 0.023996541 0.032659393
0002b0 ea 13 25 bc 84 da 5a 3d 6c 90 50 bd af bd 38 ba
       -0.010075549 0.05343105 -0.05091898 -0.0007047308
0002c0 37 ff 39 3c ff 47 32 3d 84 ce be bc c4 c1 9e bd
       0.011352352 0.043525692 -0.023291834 -0.077518016
0002d0 03 e7 c7 bc 08 98 8b 3b 68 8e f6 3c d9 cc cb bc
       -0.024402147 0.004260067 0.030097201 -0.024877952
0002e0 f9 ac 6e bd cc 55 50 bd 03 b4 4f 3b e6 67 12 3a
       -0.05827043 -0.050863072 0.0031692989 0.000558494
0002f0 d6 c9 2a bd af c2 8c 3d 60 fd 7b 3c b6 89 4c bb
       -0.041696392 0.068730704 0.0153802335 -0.0031210012
000300 44 7a ef 3c 83 06 ea 3c 9e c9 c9 3b 2e 1c 4f 3c
       0.029233105 0.028567558 0.006158068 0.012640996
000310 ce 1a 49 bd bc 64 18 bd 7d 85 81 3d bc 9b 32 bd
       -0.04909783 -0.037205443 0.06324289 -0.04360555
000320 64 99 13 ba 3a 90 2c 3d 69 35 7d bb dd ee 37 3c
       -0.0005630462 0.042129733 -0.0038636571 0.011226383
000330 58 d0 b2 3c 65 64 0d 3d b2 0a 51 bd 49 16 c9 bc
       0.021827862 0.03451957 -0.05103559 -0.02454676
000340 31 ef 97 3b 04 8d de 3c 88 e8 09 3d f9 e9 17 3d
       0.004636668 0.02716685 0.033669025 0.037088368
000350 6e b5 be 3c 7e 97 c7 bc b5 8b fa bc 9e d8 ec 3c
       0.023279872 -0.02436423 -0.030584196 0.028911885
000360 77 74 36 3c 19 24 c4 bb 1e 92 43 3b 34 e0 0a 3c
       0.011136166 -0.0059857485 0.0029841731 0.008476306
000370 3d 12 53 bd ab 5a 25 bd 5a 94 ad 3c 4c 0d c9 3c
       -0.051531065 -0.04036967 0.021188904 0.024542473
000380 53 ab 43 bc 81 59 b8 bc 0b 91 21 bd dd 52 65 bd
       -0.011942702 -0.022503616 -0.039444964 -0.055987228
000390 c0 b4 39 bd 83 1b 00 bb 43 ad 06 bc 62 c2 5b bc
       -0.045338392 -0.0019547648 -0.00822002 -0.013413044
0003a0 d7 ea 88 3c 5a 3f 59 3d 1b 37 06 bd 23 51 09 3a
       0.016713543 0.053038932 -0.032767396 0.00052382256
0003b0 da bb 40 3d 7b c4 d5 ba 0d ed 5f bd 18 77 2a bd
       0.04705415 -0.0016309166 -0.05466943 -0.041617483
0003c0 f6 52 84 3b 6d ed 9b bc 1f 8b 20 bc 56 b2 3c 3d
       0.00403821 -0.019034112 -0.009798794 0.046068512
0003d0 6f d8 eb 3c 02 90 44 3d 8e 18 18 3d 0a 3f 76 bc
       0.028789727 0.0479889 0.037132792 -0.015029678
0003e0 ff a0 51 bd ef 46 da 3c b8 4c be bc f5 41 05 3d
       -0.05117893 0.026645152 -0.023229942 0.032533605
0003f0 9e 0d ab bc db 62 6c 3d 35 90 0e bc 4b ef 15 3d
       -0.020880517 0.057711463 -0.008701374 0.03660516

conv2.bias f4 [64]
000000 bb 3d 41 3c 08 c6 8e bb f7 26 6b 3c 4f c8 75 3d
       0.011794503 -0.0043571033 0.014352552 0.060005482
000010 93 f9 9c 3d dd 19 76 3d 48 61 32 bc 8b 2e 26 bd
       0.0766479 0.06008326 -0.0108874515 -0.04057173
000020 6e 2d 93 bc c7 7c 27 bd 07 d5 2f bd 4c 60 85 3d
       -0.017965999 -0.04089048 -0.042927768 0.06512508
000030 c1 d4 f5 bc c4 cb 49 3c 87 a6 8c 3c ed c5 17 3d
       -0.030008676 0.012316648 0.01716925 0.03705399
000040 35 ba a6 3d 88 91 39 3d c1 2a 43 3d 4f d6 64 bc
       0.08140985 0.045304805 0.047648195 -0.013967111
000050 14 51 4e 3c 04 8c c2 3c 91 a5 05 3d 47 44 e6 3c
       0.012592573 0.023748405 0.0326286 0.028108729
000060 bd 8a a9 bc bf 6b 69 3c 42 6c b6 3c 65 62 3f 3d
       -0.020696038 0.01424688 0.022268418 0.046724696
000070 0a 71 80 3d 35 e8 54 3d 2b f8 fb 3c 54 a3 5c 3d
       0.062715605 0.051979262 0.030757984 0.0538667
000080 5c 89 1a 3d 28 df 95 3c 75 ac 1c 3d 36 52 0d bc
       0.037728652 0.018294886 0.038250405 -0.008625558
000090 21 c6 e3 3c 42 c4 59 bd 95 be 4f 3d 1a e2 08 bd
       0.027804436 -0.05316568 0.050718863 -0.033418752
0000a0 a3 16 73 bd 06 51 2b 3d 6c ba 67 3d 52 e3 b0 bd
       -0.05934776 0.041825317 0.05657427 -0.08637108
0000b0 9a 3b 61 bc 00 ff 47 3d cd ca b7 bc 85 c3 63 3c
       -0.01374712 0.04882717 -0.02243557 0.013901596
0000c0 90 26 b1 bc db 43 14 bd 2b 45 b3 3c 13 0d df 3c
       -0.021624833 -0.036197525 0.021883568 0.027227914
0000d0 ed 9f 90 3d 87 ae ab bc 8b f7 40 bd e2 fb 3a 3b
       0.070617534 -0.020957245 -0.047111075 0.0028531482
0000e0 94 ff 6b 3b 7e f5 4f 3d ef 3b 03 bb b5 8b 64 3d
       0.003601049 0.05077123 -0.0020024737 0.055797298
0000f0 08 20 58 bc d2 9a 40 3d 9b e5 57 3d 9f 56 ec bc
       -0.013191231 0.04702265 0.052709203 -0.028849898

norm2.weight f4 [64]
000000 6f 26 88 3f 5e 4e 89 3f 4e 6a 88 3f e5 70 84 3f
       1.0636729 1.0727041 1.0657442 1.0346953
000010 64 6a 8c 3f 44 5e 8b 3f a3 34 8e 3f 86 04 8c 3f
       1.0969968 1.0888143 1.1109813 1.093888
000020 ea 1b 8c 3f 25 20 8a 3f 8a bd 88 3f f7 fb 86 3f
       1.0946019 1.079106 1.0682843 1.0545644
000030 29 0d 8e 3f d5 d8 89 3f 52 4b 89 3f 71 b6 89 3f
       1.1097766 1.0769297 1.0726111 1.0758802
000040 4e a7 8a 3f 80 32 8b 3f e7 8b 88 3f 1c 0d 82 3f
       1.0832307 1.0874786 1.0667695 1.0160251
000050 bf 59 8a 3f 94 aa 87 3f ec d2 8a 3f c8 38 89 3f
       1.0808638 1.0598931 1.0845618 1.0720453
000060 90 e6 86 3f 65 ba 85 3f fa 6c 89 3f ba fa 84 3f
       1.0539112 1.0447508 1.0736382 1.0389016
000070 81 c0 85 3f 5a 8e 87 3f 0a f9 87 3f 81 15 91 3f
       1.0449373 1.0590317 1.0622876 1.1334687
000080 c7 66 8c 3f b5 f1 81 3f 86 f7 86 3f 08 1f 85 3f
       1.0968865 1.0151888 1.0544288 1.0400095
000090 98 d3 8f 3f 0e 3a 8e 3f f6 d9 89 3f 27 6a 91 3f
       1.1236448 1.1111467 1.0769641 1.136052
0000a0 b4 e8 89 3f 60 7a 89 3f 29 f5 89 3f 14 27 8d 3f
       1.077414 1.0740471 1.0777942 1.1027551
0000b0 d8 07 89 3f 8f e8 8f 3f 2f 26 85 3f 87 4f 8c 3f
       1.0705519 1.1242846 1.0402278 1.096177
0000c0 b3 48 8c 3f b8 bc 87 3f 3f 8e 8b 3f 6b fa 8a 3f
       1.0959686 1.0604467 1.0902785 1.0857671
0000d0 70 05 89 3f de 62 8b 3f d6 82 8f 3f ee 47 8c 3f
       1.0704784 1.0889547 1.1211803 1.0959451
0000e0 9a 6d 88 3f 31 63 8a 3f 93 3c 83 3f ca f9 87 3f
       1.0658448 1.0811521 1.0252861 1.0623105
0000f0 7b bc 8a 3f a5 f2 8a 3f b4 07 88 3f 01 4e 8b 3f
       1.083877 1.0855299 1.0627351 1.088318

norm2.bias f4 [64]
000000 ab be 67 3c fd 72 50 3b ed ff 22 3c 5a 14 85 3c
       0.01414458 0.003180682 0.009948713 0.016245056
000010 e9 c0 32 3d 38 fa a6 3c 47 03 8f 3c 87 c7 54 3c
       0.043641005 0.020382985 0.017457617 0.012987024
000020 57 78 d9 3c d7 86 2c 3c 3f 9b 8e 3c 2b 6f 6d 3c
       0.02654664 0.010530195 0.017408011 0.014491837
000030 65 e3 ce 3c d3 d6 e0 3b d8 29 be 3c e0 76 e0 3b
       0.025254915 0.0068615465 0.023213312 0.0068501085
000040 17 c8 b0 3c 5c 09 07 3d ea e8 10 3d d2 c3 8f 3c
       0.021579785 0.03296791 0.035378374 0.01754943
000050 d4 bb 5d 3c f2 50 b7 3c ec b1 ac 3c 6f a4 c9 3c
       0.013533551 0.022377465 0.021080934 0.02461454
000060 ac 8c cb 3c 61 6a 94 3c 1f 35 cb 3b 3b eb 8a 3c
       0.024847351 0.018117132 0.006201401 0.01695787
000070 a3 b4 50 3d be 0e c8 3c 69 c1 c0 3b af cf 1a 3c
       0.05095352 0.024421092 0.0058824313 0.00944893
000080 54 e5 87 3c fe a9 c3 3c fc f2 9c 3c 67 4d fd 3c
       0.016588844 0.02388477 0.019158833 0.030920697
000090 e1 e4 90 3c 14 86 9f 3c 88 3b aa 3c 54 19 81 3c
       0.017687263 0.019473113 0.02078034 0.015759148
0000a0 9a 02 49 3c b2 8f 83 3c ef 9d 26 3d 31 60 e5 3b
       0.012268687 0.01605973 0.04067796 0.0069999923
0000b0 55 fc c7 3c d8 1c b7 3c 24 79 05 3d 24 64 f6 3c
       0.024412313 0.022352621 0.03258623 0.030077048
0000c0 27 68 31 3c 91 c5 2d 3c fd e9 73 3c da 5d 93 3c
       0.0108280545 0.0106061855 0.01488733 0.017989088
0000d0 b1 7e cc 3c 1f df 15 3d 38 d2 96 3c 23 be 23 3c
       0.024962755 0.036589738 0.018410787 0.009994063
0000e0 dd 61 bf 3c 17 13 a4 3c 3d 89 56 3c 76 8c bc 3c
       0.023362095 0.020028634 0.013094244 0.023016196
0000f0 cb 63 90 3c 3c 12 28 3d 68 2c 43 3c aa e6 61 3b
       0.01762571 0.041033015 0.011912443 0.0034469762

norm2.running_mean f4 [64]
000000 12 20 48 bd 06 00 4d 3d 08 47 39 3e a6 82 0d 38
       -0.04885871 0.05004885 0.18093503 3.3738695e-05
000010 1d 15 3a be 6f a6 ee 3c f6 5d 46 bd 21 0a 28 3b
       -0.18172117 0.029132096 -0.048429452 0.0025640803
000020 70 b0 22 3d 2e d3 e8 3d 53 fa d6 bc 01 47 65 3c
       0.039719045 0.11368404 -0.02624241 0.013993979
000030 ec a6 9d 3d 3f 39 12 3e e8 67 bf bc 58 17 15 bb
       0.076978534 0.1427965 -0.023364976 -0.002274951
000040 e0 0d 7b bc d7 6d 3e be 17 58 8a bc f4 27 54 be
       -0.015323132 -0.18596588 -0.016887708 -0.20718366
000050 18 54 99 3d 43 4c 65 3d b6 e4 0f 3d 50 a1 d2 bd
       0.07486743 0.055980932 0.035130225 -0.10284674
000060 74 0c 05 be 0e 6b 61 3d 35 27 b9 3c 10 a9 48 3a
       -0.12993032 0.055033736 0.022601703 0.0007654587
000070 ea 1b a9 be 2a fa 0f 3e 98 59 e2 3d a0 f6 ca 3c
       -0.3302911 0.14060274 0.11052245 0.024775803
000080 0c 29 d5 3d 17 83 20 bf 89 12 8d bd bd 3a 9f be
       0.1040822 -0.6270003 -0.06888301 -0.310995
000090 41 c8 5f 3d 65 b7 5d 3c 64 7d f2 bc c0 3f d4 3c
       0.054634336 0.013532494 -0.029600807 0.025909305
0000a0 2d fa 27 3c fa 93 45 3d 0f 57 5d be e8 25 ba 3c
       0.010252518 0.048236825 -0.21615241 0.022723153
0000b0 49 bb 46 be 14 8a 98 bc 21 be 21 be 8e b7 35 bd
       -0.19407381 -0.018620528 -0.15795185 -0.044364505
0000c0 9e c4 c2 3d 5b e4 bb 3c 0c df a3 3d 6f 96 31 3c
       0.09510158 0.022936037 0.08001527 0.010839089
0000d0 ac f4 07 be dd c2 6b bd 8c 93 42 3d eb d1 3c 3c
       -0.13276929 -0.057558883 0.047503993 0.011524658
0000e0 bc db 5f bc 67 88 84 3d 24 5d 94 3e 4f df 4e 3d
       -0.013663229 0.06471329 0.2897731 0.050505932
0000f0 c0 78 0b 3d 90 7d 5b be 58 1a 1d bd 52 4c 81 3b
       0.034050703 -0.21434617 -0.0383552 0.0039458657

norm2.running_var f4 [64]
000000 bc 3c 13 3e bf 89 75 3e 78 76 ca 3e 92 15 c7 3e
       0.14378637 0.23978327 0.3954351 0.38883644
000010 ee ad 90 3e f4 de 19 3e 38 51 21 3e 2e c9 3e 3e
       0.28257698 0.15026456 0.15753639 0.18631431
000020 97 be a2 3e c0 9f 69 3e e1 a2 8e 3e 5c 74 c4 3e
       0.31786034 0.22814846 0.27858642 0.38370025
000030 94 0d 36 3e c4 e0 88 3e 37 d5 7b 3e 5c 59 8c 3e
       0.17778617 0.26733983 0.24593054 0.27411926
000040 54 c4 5a 3e c8 e8 6f 3e 2f 24 95 3e 75 d3 32 3e
       0.21363956 0.23428643 0.29129168 0.17463477
000050 bd 6c aa 3e fe 83 95 3e c2 a3 29 3e 65 be 4d 3e
       0.33286086 0.29202265 0.16566375 0.20092161
000060 73 2e 06 3f 5b 54 47 3e 3c bf 31 3e cf 61 24 3e
       0.52414626 0.19465773 0.17358106 0.16052936
000070 6f f7 d2 3e ef 21 11 3f d0 09 5c 3e 2d 68 1c 3e
       0.41204402 0.56692404 0.21488118 0.15274115
000080 2a ed 4b 3e 88 fe af 3f 82 c1 70 3e aa 18 cd 3e
       0.1991469 1.3749552 0.23511317 0.4005788
000090 a8 12 f0 3d ee cd eb 3d e9 29 bc 3e 48 4e 4c 3e
       0.117223084 0.11513887 0.36750725 0.19951737
0000a0 ae c6 50 3e fc b2 86 3e e0 c3 ab 3e 00 46 25 3e
       0.2038829 0.2630843 0.33547878 0.16139984
0000b0 21 4a ee 3e 3e 53 20 3e df 26 2f 3e ce 19 44 3e
       0.4654093 0.15656754 0.17104672 0.19150469
0000c0 37 9d c7 3e 5b 33 ca 3e f0 d0 25 3e c6 99 25 3e
       0.38987133 0.39492306 0.16192985 0.16171941
0000d0 ff 98 13 3e 1f 8c 61 3e 43 c5 b7 3d cc e4 f2 3d
       0.14413832 0.22026108 0.089731716 0.11860046
0000e0 36 c5 4a 3e d6 ce 4e 3e 01 1b 45 3f 0d 0c 7f 3e
       0.19801793 0.20196089 0.7699433 0.24906941
0000f0 d0 3a 67 3e 1e 73 be 3e 48 3c 21 3e d9 7f 74 3e
       0.22581029 0.37197202 0.15745652 0.23876895

fc1.weight f4 [50, 1600]
000000 c7 99 2d 3b 17 e8 20 bc 3a 40 ba 3c a8 df 9b 3c
       0.0026489364 -0.0098209595 0.022735704 0.019027546
000010 7c f6 de 3b 98 84 1d 3c 33 2b d3 3b d2 51 dc bb
       0.0068042856 0.009614132 0.0064443587 -0.006723621
000020 81 8e 1f bb c5 90 c8 ba 6a aa 52 bc 9c 7f 81 bc
       -0.0024346414 -0.0015301934 -0.012858013 -0.01580792
000030 14 d2 96 bb c3 1a fe 3b 75 63 77 bc 80 ad 90 3c
       -0.00460268 0.007754655 -0.015099396 0.017660856
000040 14 9a 9d ba 68 3a cc 3c 43 25 f9 bb f8 e8 0d 3a
       -0.0012024068 0.024930194 -0.007603319 0.0005413438
000050 30 11 b1 bb 2f d6 9b 3c 1e e9 69 bc 7e 9a a5 bc
       -0.0054036602 0.01902303 -0.014276771 -0.02021527
000060 cc c1 05 bc 64 08 ab bc 03 63 10 bc 71 d3 4a 3c
       -0.008163881 -0.020878024 -0.008812669 0.012379513
000070 78 30 06 bc 43 ea a9 bc fb 9d 58 3c 67 2f bb 3c
       -0.008190267 -0.020741588 0.013221259 0.022849752
000080 ae 76 ad bc 17 9b 7f bb 48 7e da 3b 03 8d 80 bc
       -0.021174755 -0.0039002353 0.006667886 -0.01569224
000090 88 bd b7 3c 7e 06 2f 3c d2 82 b5 3c 8c f2 bb bb
       0.022429243 0.0106827 0.022157107 -0.005735701
0000a0 df 81 41 bc 43 ac 83 3c 68 af 13 3c c4 2c 9b 3c
       -0.011810749 0.016073352 0.009013988 0.018942244
0000b0 1b 0b 0c b9 11 84 26 ba 49 42 a4 3c 38 2c 71 bc
       -0.00013355578 -0.0006352077 0.020051138 -0.014720015
0000c0 52 a1 51 bb 10 fa 33 3c 5a 5f c1 3c 48 3d 85 3c
       -0.0031987024 0.0109849125 0.023605037 0.016264573
0000d0 88 18 c3 3c 99 93 81 3c 1c 72 06 bb 16 28 8c bc
       0.023815408 0.01581745 -0.0020514792 -0.017108958
0000e0 83 0e f2 bb 23 e4 96 bb 27 9a 6c bc f8 ec ac 3c
       -0.007386984 -0.0046048327 -0.01444105 0.02110909
0000f0 c4 69 a7 3c fe 6d 7e 3c b0 71 82 3b 5b 07 25 3c
       0.020436175 0.015529154 0.0039808378 0.010072554
000100 31 a1 ae 3a 4e 1d 36 bb d8 7b a6 bc 30 71 a0 3c
       0.0013323185 -0.0027788463 -0.020322725 0.019585222
000110 91 e1 c9 3b e9 de b2 3c be 4d 95 ba 84 9c 45 bb
       0.006160923 0.021834807 -0.0011390967 -0.0030153105
000120 fa 73 e9 3b 0c 6d 2d bb 4f be 02 3b 25 23 30 3c
       0.007124421 -0.0026462702 0.0019949859 0.010750567
000130 80 10 4f bc 41 30 2e bc 53 73 a2 bc af 11 b2 bc
       -0.012638211 -0.010631622 -0.019830381 -0.021736948
000140 58 b1 77 3c 6b cb 11 bc 0b d4 99 bc fd 32 cc 3c
       0.015117966 -0.008898596 -0.018777868 0.024926657
000150 26 c4 ab 3c d8 44 e7 3b fd ff af bc 48 27 ad bc
       0.020967554 0.0070577674 -0.02148437 -0.021136895
000160 5f e3 bb bc b1 c0 b6 3b d0 28 3f bc 8b 6b 05 3c
       -0.022935567 0.00557717 -0.011667445 0.008143316
000170 45 91 bf 3b f3 9c 48 bb 38 b9 bd 3b 89 01 96 bb
       0.005846175 -0.0030611127 0.005789902 -0.0045778197
000180 bb 98 88 bc 8c 09 a2 bc ee 2e b4 3b ab ca 71 3c
       -0.01667439 -0.019779943 0.0054987585 0.014757792
000190 fe ba ad bc d9 f3 7a 3c 43 1a 5e bc 69 d4 0a bd
       -0.021207329 0.015316927 -0.013556066 -0.033893976
0001a0 5e 92 a4 3c 18 b3 8d 3c 72 bc d7 bc 75 d8 aa 3c
       0.020089325 0.017297313 -0.026334975 0.020855168
0001b0 11 e1 d4 bc 04 39 3d 3c d3 f4 51 3b e1 5f b0 3c
       -0.025986226 0.011549238 0.0032036796 0.021530094
0001c0 45 4c ca ba 7e f2 cb 3c bd 77 55 bc 0e 3d bf 39
       -0.0015434107 0.024895903 -0.013029036 0.00036475848
0001d0 ca e2 e0 bb b6 c2 c5 3b 27 33 33 bc 18 ac ba bc
       -0.006862973 0.0060351742 -0.010937489 -0.022787139
0001e0 c1 1d 37 3b c5 b9 82 bb 02 56 50 3c fa 62 ed 3a
       0.0027941319 -0.0039894306 0.012715818 0.0018111162
0001f0 4a 32 85 bc bb 5e 96 bc 5c f4 a1 3c 09 d2 69 3c
       -0.016259331 -0.018355718 0.01976984 0.014271268
000200 fa 0c 6f bb cd a8 6d 3a 9b 8e 4b 3c f1 38 90 3c
       -0.003647624 0.0009065986 0.0124241365 0.017605277
000210 bc c5 96 bb 22 4c ae bc f6 d3 7b ba 20 90 4e bc
       -0.0046012085 -0.021276537 -0.0009606475 -0.012607604
000220 f2 52 8e 3c 8e 03 aa 3c b5 d7 5f bc 96 6b eb 3b
       0.017373536 0.020753648 -0.013662268 0.007184456
000230 7a 7f 6e bc db 32 9e bc b3 63 9f 3c b7 63 a3 ba
       -0.01455676 -0.01931136 0.01945672 -0.001246563
000240 08 fe 23 3c 65 d2 3a 3b 5a e4 cf bc 9a cb 88 3c
       0.010009296 0.0028506753 -0.025377441 0.016698647
000250 e8 3b 47 bc 1a 0e b6 bc f3 de 8c bc 2a da fd bb
       -0.012160279 -0.022223521 -0.017196154 -0.0077469544
000260 00 3d 53 bc 9f 49 ba bb 41 9c bc bc 46 ef d5 3c
       -0.0128929615 -0.005685046 -0.023023726 0.026115071
000270 41 44 a8 bc de f3 0a bc 23 bf d1 3c 71 31 6d 3c
       -0.020540358 -0.008480994 0.025603836 0.01447712
000280 b3 82 1e bc da 39 89 bc e0 b2 59 3c d6 3d 91 bc
       -0.009674716 -0.016751219 0.013287276 -0.017729681
000290 bf 96 a6 3b 08 ca a4 bc 6e 00 f5 3b da a1 13 3c
       0.0050838883 -0.020115867 0.007476858 0.009010756
0002a0 fb b6 9a 39 9e ce 40 bb 01 55 c6 3c 35 cb 1b 3c
       0.000295095 -0.0029420028 0.024210455 0.009508898
0002b0 d8 7f 30 3b 47 a5 c9 3c 40 9f 2f 3c 4c 1f 78 3c
       0.002693167 0.024614943 0.0107191205 0.0151441805
0002c0 e3 71 8b bc 48 83 8f ba 96 77 8b bc 30 92 b6 3b
       -0.017022079 -0.0010949159 -0.017024796 0.005571626
0002d0 dd 6e 9b ba 89 ca 4a 3b 1b b0 68 3c 5a 21 13 bc
       -0.0011858601 0.0030943474 0.014202143 -0.00898012
0002e0 50 9f df 3c f9 61 ae bc c5 56 0a bc 6d 70 36 3c
       0.027297646 -0.021286951 -0.008443539 0.011135203
0002f0 1b 13 93 3c a4 90 e7 3c 71 bd 8e bc c2 e2 27 bc
       0.017953446 0.028267212 -0.017424317 -0.010246934
000300 c3 20 34 3c a9 37 93 3c 09 cb 79 bc 6d ed 5e bb
       0.010994139 0.017970877 -0.015246161 -0.0034016029
000310 e5 12 02 bc 31 6a 87 3c 02 59 36 bc 52 64 8b 39
       -0.007939075 0.016530128 -0.01112962 0.0002658689
000320 98 39 73 ba 65 43 7f bc 4e 53 21 3c 4f 71 4e bc
       -0.00092782965 -0.015580033 0.009846522 -0.012600257
000330 d4 82 c8 ba 12 1b 06 3b e6 bd 9e 3b 3b 2c 8e bc
       -0.0015297779 0.0020462913 0.004844415 -0.017355075
000340 91 cb 8a 3c 53 5a a4 3c 68 d9 c7 bb 08 b1 b7 bc
       0.016942771 0.020062601 -0.006098915 -0.022423282
000350 46 25 6a 3c ad 6c 58 bc 7b d6 af bc c1 f5 b4 bc
       0.014291113 -0.013209504 -0.021464577 -0.02208984
000360 f1 55 c6 3b 33 60 ba 3c 01 be a3 bc a5 f4 ca bb
       0.0060527255 0.02275095 -0.019988062 -0.0061937147
000370 ab e3 f1 ba d6 eb a4 3c 9d 1a 85 bb 6a b9 4f bb
       -0.0018454691 0.020131987 -0.0040620104 -0.0031696209
000380 f8 78 02 3b 52 f2 c0 bc 54 00 d0 3c 49 7b 96 3b
       0.0019908529 -0.023553047 0.025390781 0.0045923335
000390 54 ac 65 3c 44 b3 60 3c 94 d1 b9 3c 8b 51 7d ba
       0.014018137 0.013714615 0.022682942 -0.0009663335
0003a0 87 5e 57 3c 3b 96 71 bc 25 3e 84 bc 98 7e b9 3c
       0.013145096 -0.01474529 -0.016142914 0.022643372
0003b0 f1 f4 2a 3c ee 3e c4 bc c1 9e 1d 3b 17 b5 2b 3b
       0.010434375 -0.023955788 0.0024050924 0.0026200467
0003c0 42 75 aa bb 36 cf 92 bc 73 76 8d 3a 65 f5 05 bc
       -0.0052019665 -0.017921071 0.0010792747 -0.008176182
0003d0 ca d8 87 bc 41 7b 68 bc 40 93 5a 3c 6a 57 5c 3c
       -0.016582865 -0.014189542 0.013340771 0.0134485755
0003e0 57 6b d3 3b 8c b4 ab bb 1d c2 5a bb b7 c1 5a bc
       0.006452005 -0.0052400287 -0.003337986 -0.013351849
0003f0 09 a3 95 ba 93 fd 3d 3b 8c d8 bf bc 44 7b 02 bc
       -0.0011416386 0.0028990253 -0.023418687 -0.007963959

fc1.bias f4 [50]
000000 16 fe 85 bc fc c8 bf bb 22 e0 93 3c 7e 11 36 3d
       -0.01635651 -0.0058528166 0.01805121 0.044450276
000010 40 bf d5 3c 27 0a 1f bc b0 f0 01 3d 23 57 0a bc
       0.026092172 -0.00970701 0.031723678 -0.008443627
000020 87 76 53 bc d4 2f 1f 3c 4e 23 23 ba f3 07 de bb
       -0.012906677 0.009715993 -0.00062232174 -0.00677585
000030 ec 7b 05 3c e2 0a 23 3a a6 01 29 bc 6e ec 14 bc
       0.008147221 0.0006219578 -0.010315334 -0.009089572
000040 0a 55 a4 3b 6a 21 ab 3c 63 17 72 3c d3 41 28 3b
       0.0050150203 0.020889957 0.014776084 0.0025674
000050 0c bb f5 3c c2 b2 e2 3c f9 db 4f 3c 88 27 06 3d
       0.029996417 0.027673129 0.012686723 0.032752544
000060 24 ce c4 3b d0 8a 06 bc b6 8d 09 bb 3e 16 7d 3c
       0.006006019 -0.008211806 -0.0020989007 0.0154471975
000070 d9 4b 4c bc 91 88 62 3c 07 48 c0 3c b3 1b 83 3c
       -0.012469255 0.013826505 0.023471845 0.016004419
000080 a0 ec c4 bb 08 b2 bd 3c ff c5 9f 3c d0 c9 85 bb
       -0.006009653 0.023156181 0.019503592 -0.004082896
000090 d8 a3 49 bc a7 6e 84 bc 31 00 d2 3b a2 a0 52 3b
       -0.01230713 -0.016166044 0.006408714 0.0032139202
0000a0 af 8f e9 3c e2 17 8a bc 25 84 d8 3c 52 d4 b4 3c
       0.028510896 -0.016857091 0.026430199 0.022073898
0000b0 d4 6c 1c 3c a9 c6 dc 3c 3e ed 88 3c 6e c4 df ba
       0.009547431 0.026950197 0.016714688 -0.001707209
0000c0 c1 e0 bc bb 4b c6 01 3d
       -0.0057640974 0.031683248

fc2.weight f4 [10, 50]
000000 9f b7 04 3d 22 70 a8 3d e5 10 3b 3e 83 9a 39 3e
       0.032401677 0.08224513 0.18268164 0.18125348
000010 20 67 19 3e 19 5e bf bc a2 da 42 3e d2 f1 f5 bd
       0.14980745 -0.023360299 0.19028714 -0.12009014
000020 49 ac 17 be e0 b2 29 3e 55 5c 23 be 03 ee 28 3e
       -0.14811815 0.16572142 -0.1595319 0.16497044
000030 ff 3a e7 bd d9 a2 27 3e 78 f5 f2 bd 68 2c e4 3d
       -0.112905495 0.16370715 -0.11863226 0.11141282
000040 06 4d 40 3e 50 a0 10 be f0 39 e1 3d b2 f3 15 be
       0.18779382 -0.14123654 0.10997379 -0.14643744
000050 5f b7 1f be d5 0c 5b be 72 cc 37 3e 2e c7 e3 3d
       -0.15597294 -0.21391614 0.17949083 0.11121975
000060 8c 1a 33 3e fe 96 43 be 6e 03 6b 3d ea 4e b6 bd
       0.17490596 -0.19100568 0.057376318 -0.089017704
000070 f7 21 15 be 18 4c eb bd 4f 94 62 be a6 3d fe 3c
       -0.14563738 -0.11489123 -0.22126888 0.031035256
000080 af cd 12 be 42 8c 3f be e7 31 20 3e ea 0f 42 be
       -0.14336275 -0.18705848 0.15644036 -0.18951383
000090 24 3d 49 be 65 40 0e be cc 6f 3f bd 7c 4e 2e 3e
       -0.1965223 -0.13891752 -0.046737477 0.17022127
0000a0 70 a2 0b 3e 68 9e cb bc ad a5 3d be 8b 5a 65 be
       0.13636184 -0.024855807 -0.18520232 -0.2239782
0000b0 c2 73 b7 3c fe 05 33 3e 8c 6b 80 bd b6 e2 0a 3e
       0.022394065 0.17482755 -0.06270513 0.13563046
0000c0 ac 70 08 3e 2f ed 07 3e f7 22 f9 bd c3 73 4f 3d
       0.13324231 0.13274072 -0.12164872 0.05064751
0000d0 f7 77 d1 bd 00 b2 74 be 7d 8a 5d be af 9b e6 bd
       -0.102279596 -0.23896027 -0.2163486 -0.11260163
0000e0 47 13 6f be e3 b4 31 be 94 fe 4d 3e 58 b0 54 3e
       -0.23347197 -0.17354159 0.20116645 0.20770395
0000f0 1d 70 fc 3d 9a 9d 14 be 2c 55 7c 3e db fa 54 3e
       0.123260714 -0.14513245 0.24641865 0.20798819
000100 f6 3b 83 bd a2 66 15 3d 76 f8 01 3e c8 ce ab bd
       -0.06407921 0.03647483 0.12692437 -0.0838905
000110 e1 d6 2c be 0e 3e 32 be a2 e6 13 bd 97 7d 8c 3e
       -0.16878845 -0.17406484 -0.03610862 0.27439567
000120 01 d1 77 3e 3c f4 0f be 6a ce 2c be ac 3a 84 3e
       0.24200822 -0.14058012 -0.16875616 0.25826013
000130 08 15 30 be 69 e3 0a be c0 e8 ee bd 49 07 55 be
       -0.17195523 -0.13563313 -0.11665487 -0.2080356
000140 f6 9e 39 be e7 56 a0 bd 94 4b 67 3e b9 0f 4a 3e
       -0.18127045 -0.07829075 0.22587425 0.1973256
000150 8e 26 89 3d 83 a7 4e 3e ee 1b 43 be ba c1 16 be
       0.06696807 0.20181088 -0.19053623 -0.14722338
000160 5f 58 d6 3d d1 1e 42 3e c4 b4 48 be 52 be 1c be
       0.10466074 0.18957068 -0.19600207 -0.15306976
000170 61 cd 07 bd 39 51 54 be b1 22 60 bd a6 34 27 be
       -0.03315485 -0.20734109 -0.054720584 -0.16328678
000180 b1 9b 37 3e a6 11 50 3e 31 6d 0f 3e ca 0f 5d be
       0.17930485 0.20319232 0.14006497 -0.21588054
000190 67 3a c3 bd 0c 84 6e 3e 6e 3d 3f 3e 0c 02 39 3e
       -0.09532624 0.2329256 0.18675777 0.18067187
0001a0 b5 3c 16 3e d3 2e a5 bd 8a 60 dc 3d 62 f5 1e be
       0.14671595 -0.08065572 0.10760601 -0.15523294
0001b0 b5 c2 1c 3e 73 a2 0f be 51 24 ea bd 32 3d 35 3e
       0.1530865 -0.14026813 -0.11432708 0.17699125
0001c0 48 f5 18 bd 88 cb 03 be 5a af 0c 3e c3 02 c0 3d
       -0.037343293 -0.1287061 0.13738766 0.09375527
0001d0 85 5f cd bd e2 8f 77 3e 2c 64 2e 3d da cb d9 3d
       -0.100279845 0.2417598 0.042576 0.10634585
0001e0 73 ed 61 3e a8 23 80 3c 09 0f 0f be 87 f6 19 3e
       0.22063236 0.015642002 -0.13970579 0.15035449
0001f0 4e 9f 4f 3e 86 99 62 be 10 7b 0c be c0 e2 5c bd
       0.20275614 -0.22128877 -0.1371882 -0.053927183
000200 38 f8 4e be 1d 1c d1 3d a8 e5 26 be f2 25 68 3e
       -0.20211875 0.1021044 -0.16298544 0.22670725
000210 d1 8e 03 be e9 51 56 be 68 6f 8d 3d f0 cd 90 bd
       -0.12847449 -0.20929684 0.06906015 -0.070705295
000220 fa 07 0d be 23 c6 07 3e b9 70 2c be 79 04 2c be
       -0.13772574 0.13259177 -0.16839875 -0.16798581
000230 ce 8a db 3d d0 73 d5 bd 0b 9d 92 3d 0a 7c 98 be
       0.10719834 -0.1042248 0.0715886 -0.29782134
000240 e5 fb a7 3d 57 3e 34 3e 0d 23 03 be 03 c1 75 be
       0.08202342 0.17601906 -0.1280634 -0.2399941
000250 f0 5f 05 3e 56 1f 18 be f1 1c f0 3d 8c bb 5e 3e
       0.13024879 -0.14855704 0.1172427 0.21751231
000260 d7 7c b2 bd 0f df 1f 3e 18 8d e8 3d 7f fb 24 be
       -0.087152176 0.15612434 0.113550365 -0.16111563
000270 91 b3 6f bd 5f 53 1e be c9 e3 08 3e 9b 28 45 3e
       -0.058520857 -0.15461491 0.13368143 0.19253771
000280 87 39 0d be 71 f5 5f 3e 7f 3b 3c 3e e8 81 28 3e
       -0.13791476 0.21870972 0.18382071 0.16455805
000290 9a 90 14 3e b4 31 ca 3d 3a 69 37 3e 5e d1 72 3e
       0.14508286 0.09872761 0.17911234 0.2371268
0002a0 5f e4 30 be 3b ba 62 be 3a 4a 11 be 78 7c 87 bc
       -0.17274617 -0.22141354 -0.14188471 -0.016538844
0002b0 33 83 58 be dd 07 38 3e b0 99 50 be 1f 0e 3a bc
       -0.21143799 0.1797175 -0.20371127 -0.011355906
0002c0 ab b3 f5 3d ce eb e4 3d 3b 87 25 3e 8d 75 c2 3c
       0.119971596 0.11177789 0.16164868 0.023737693
0002d0 be b0 43 be e6 df 9e bd 5e d8 39 be 25 73 27 3e
       -0.1911039 -0.07757549 -0.18148944 0.16352518
0002e0 5f c2 8f be 49 79 44 be 6d 47 58 3e a5 50 90 bc
       -0.2807798 -0.19186892 0.21120997 -0.01761658
0002f0 75 68 1c 3e e8 ba 34 3e af 5e 59 be 31 d9 8c bd
       0.15274222 0.17649424 -0.21227525 -0.068773635
000300 7f 79 b0 bd 70 9a b8 bd 31 86 69 be 39 f2 40 3e
       -0.086169235 -0.090138316 -0.22805096 0.188424
000310 fe 04 06 3c 4c 98 01 3d fb 77 4b be 67 69 2d 3e
       0.008179901 0.031639382 -0.19869988 0.16934739
000320 7e 37 08 3e d0 60 b2 bd 39 a6 46 3e 0c 70 36 be
       0.13302419 -0.08709872 0.19399346 -0.1781618
000330 8e 5b 11 3e 04 93 56 be a3 e0 3f be cc 41 98 3d
       0.14195082 -0.2095452 -0.18738036 0.07434425
000340 1f 6b 32 3e 67 dc 8e 3d 49 90 ba bd ff cd f4 3d
       0.17423676 0.06975632 -0.091095515 0.11953353
000350 c5 c7 48 3e ac 8e ef bd 4e ee 09 3e 95 71 c6 3d
       0.19607456 -0.116971344 0.13469812 0.09689633
000360 cf 4b 05 3e 93 e6 e5 bd 5b 14 51 be 5c 7a 19 be
       0.130172 -0.11225619 -0.20417921 -0.14988083
000370 a6 99 72 3e 71 4d 81 3e 0b 1b 7a be 9c 18 5e be
       0.23691425 0.25254396 -0.24424379 -0.21689075
000380 a1 70 29 3e 58 36 15 bd 0f 58 0d 3e 98 59 25 be
       0.16546871 -0.03642878 0.13803123 -0.16147459
000390 c3 66 7b 3d e1 8c e9 3d 1a d9 99 3d c5 ee 73 3e
       0.061377298 0.11403824 0.07512112 0.23821552
0003a0 64 59 3b bb ca 98 2e 3e 33 95 30 3e 2d ed 4b be
       -0.0028587217 0.17050472 0.17244415 -0.19914694
0003b0 62 ca 38 3e 20 29 0c 3e e4 b5 5e be c2 c0 1a bc
       0.18045953 0.13687563 -0.21749073 -0.009445371
0003c0 05 45 dd 3c 3a 2c c2 bc 22 da 78 bd d2 65 72 3d
       0.02701045 -0.02370273 -0.060754903 0.059179135
0003d0 2d b6 c3 3d e4 95 51 be c4 b8 99 bd eb d8 84 be
       0.09556232 -0.20467335 -0.07505944 -0.25946745
0003e0 86 0f e1 3d 9f 94 c9 bd 0b b2 b4 3d dc 8d 8d bd
       0.10989289 -0.098428 0.088230215 -0.06911823
0003f0 dc d3 3a be e3 09 48 3e 69 45 8f bd 70 1f 4c 3e
       -0.1824488 0.19535021 -0.06995661 0.19933867

fc2.bias f4 [10]
000000 e4 77 81 3d 21 1d f7 bd c3 18 a1 3d 76 11 4c bd
       0.063216954 -0.12066103 0.07866051 -0.04982134
000010 ad e5 ec bd b0 08 40 be f2 bc dd 3d f3 a3 3b bd
       -0.11567245 -0.18753314 0.10827054 -0.04581065
000020 3d 96 aa bd 56 7d b5 3d
       -0.08329437 0.088617966
